======================== RLCT estimates for [NeuralNet(
  (model): Sequential(
    (0): Flatten(start_dim=1, end_dim=-1)
    (1): Linear(in_features=784, out_features=512, bias=True)
    (2): ReLU()
    (3): Linear(in_features=512, out_features=512, bias=True)
    (4): ReLU()
    (5): Linear(in_features=512, out_features=10, bias=True)
  )
), NeuralNet(
  (model): Sequential(
    (0): Flatten(start_dim=1, end_dim=-1)
    (1): Linear(in_features=784, out_features=512, bias=True)
    (2): ReLU()
    (3): Linear(in_features=512, out_features=512, bias=True)
    (4): ReLU()
    (5): Linear(in_features=512, out_features=10, bias=True)
  )
), NeuralNet(
  (model): Sequential(
    (0): Flatten(start_dim=1, end_dim=-1)
    (1): Linear(in_features=784, out_features=512, bias=True)
    (2): ReLU()
    (3): Linear(in_features=512, out_features=512, bias=True)
    (4): ReLU()
    (5): Linear(in_features=512, out_features=10, bias=True)
  )
), NeuralNet(
  (model): Sequential(
    (0): Flatten(start_dim=1, end_dim=-1)
    (1): Linear(in_features=784, out_features=512, bias=True)
    (2): ReLU()
    (3): Linear(in_features=512, out_features=512, bias=True)
    (4): ReLU()
    (5): Linear(in_features=512, out_features=10, bias=True)
  )
), NeuralNet(
  (model): Sequential(
    (0): Flatten(start_dim=1, end_dim=-1)
    (1): Linear(in_features=784, out_features=512, bias=True)
    (2): ReLU()
    (3): Linear(in_features=512, out_features=512, bias=True)
    (4): ReLU()
    (5): Linear(in_features=512, out_features=10, bias=True)
  )
)] ==========================
Traceback (most recent call last):
  File "<ipython-input-17-a3734d220e9a>", line 13, in wandb_rlct_estimation
    for m in models[optimizer]:
TypeError: unhashable type: 'list'